cnn_weights.pt (torch, 944759 bytes, 52 tensors)

cnn_backbone.0.weight f4 [16, 1, 3, 3]
0	0xbe2ccb59	-0.16874446
1	0x3e200323	0.15626197
2	0x3de9f143	0.1142297
3	0x3e901b45	0.28145805
4	0x3e9d97c1	0.30779842
5	0x3d97b918	0.07408351
6	0xbe2ed11e	-0.1707196
7	0x3c869f1a	0.016433287
8	0xbd191039	-0.037368987
9	0x3e150fed	0.14556856
10	0xbda06a9d	-0.07832835
11	0xbdf4f054	-0.119599015
12	0x3e79f2bb	0.24409
13	0x3e835f42	0.25658613
14	0x3e8d7960	0.27631664
15	0xbdedec16	-0.116172954
16	0xbe3d9c80	-0.18516731
17	0xbe42fec9	-0.19042505
18	0xbea10da0	-0.31455708
19	0x3e291733	0.16512756
20	0xbe0dff91	-0.13867022
21	0xbd0ed308	-0.034869224
22	0x3dcb07a0	0.09913564
23	0xbdd76dd6	-0.105189964
24	0xbe1c6799	-0.15273894
25	0xbdadc3ca	-0.084846094
26	0xbda75308	-0.08170134
27	0x3e8278c6	0.25482768
28	0xbe91637a	-0.28396207
29	0x3e8a1c98	0.2697494
30	0x3eab7a81	0.334919
31	0x3e122aa2	0.14274076
32	0x3e26149b	0.16218798
33	0x3eb4aad3	0.3528658
34	0x3e4e17be	0.20126244
35	0x3e810782	0.2520104
36	0x3e9b7daf	0.30369326
37	0x3e7e788a	0.2485067
38	0xbd87287e	-0.0659952
39	0x3e0adb16	0.13560137
40	0xbd7edcb8	-0.062222213
41	0x3ea79b49	0.3273566
42	0x3ea44eb3	0.32091293
43	0x3e91b2ab	0.28456625
44	0xbe6b1a2b	-0.22959201
45	0x3ddd20a2	0.1079724
46	0xbe468d1b	-0.19389765
47	0xbe12eba5	-0.14347704
48	0x3ca73b0c	0.020413898
49	0xbe302f3a	-0.17205516
50	0xbdb673ee	-0.089088306
51	0xbb068e78	-0.0020531695
52	0x3ea5c149	0.32374027
53	0x3e7eb547	0.2487384
54	0xbe52f433	-0.20600967
55	0xbe0ea971	-0.13931824
56	0x3de2f853	0.1108252
57	0xbe832848	-0.2561667
58	0xbe811772	-0.252132
59	0x3ea28596	0.31742543
60	0x3e56e8f7	0.20987307
61	0x3e34c5e9	0.17653622
62	0xbd7162cd	-0.058932114
63	0x3dad770f	0.08469974
64	0x3dc3dabe	0.09563206
65	0x3e7cdf2a	0.24694505
66	0x3d4e392f	0.050347503
67	0x3d979583	0.07401564
68	0x3e30a142	0.17249015
69	0xbea9dd55	-0.33176675
70	0x3e49598e	0.19663069
71	0x3da79cdd	0.08184216
72	0x3d64828a	0.055788554
73	0x3d885c60	0.06658244
74	0xbdb5ab3a	-0.088705495
75	0x3e293228	0.1652304
76	0x3e28e662	0.16494134
77	0x3eae6e6d	0.34068623
78	0x3de50c8a	0.11184032
79	0xbe919ed1	-0.2844148
80	0x3d11cde0	0.03559673
81	0xbe97d610	-0.29655504
82	0x3e27333f	0.16328143
83	0x3e98c9d3	0.2984148
84	0x3e289900	0.16464615
85	0xbe715a1e	-0.23569533
86	0xbdad7a2e	-0.084705696
87	0xbe3f2835	-0.18667682
88	0xbe9be308	-0.3044665
89	0x3e1ba404	0.15199286
90	0x3e9191fe	0.28431696
91	0xbe064283	-0.1311131
92	0xbe97695e	-0.29572576
93	0xba23339f	-0.00062256487
94	0xbead316b	-0.33826765
95	0xbe526769	-0.2054726
96	0xbe653f60	-0.22387457
97	0xbbc2950e	-0.005938179
98	0xbdd2a35c	-0.102850646
99	0xbe4211da	-0.18952122
100	0xbe8feb8b	-0.28109393
101	0xbe9a1273	-0.300922
102	0xbea194fc	-0.3155898
103	0x3e494386	0.19654664
104	0xbe32e262	-0.1746917
105	0x3b9f47a9	0.0048608375
106	0xbe640bf9	-0.22270192
107	0x3e112cb6	0.14177212
108	0xbe8afb3a	-0.27144796
109	0xbe5a9bc5	-0.21348484
110	0x3e70aee6	0.23504218
111	0xbe90d8fa	-0.2829054
112	0xbea6072d	-0.3242735
113	0x3ddace13	0.10683837
114	0x3e95ee5d	0.2928342
115	0x3e9b1dfa	0.30296308
116	0xbdb5afb6	-0.08871405
117	0xbe9b01ba	-0.30274755
118	0x3e8526ea	0.26006252
119	0xbe8f24c9	-0.27957752
120	0xbca05bc6	-0.019575011
121	0x3dabeed8	0.08395165
122	0xbe40a0ec	-0.18811387
123	0x3e4cf64a	0.20015827
124	0xbe8bd413	-0.27310237
125	0xbe6314a3	-0.22175841
126	0x3e26200e	0.16223165
127	0x3d09060f	0.033453044
128	0x3e451e5e	0.19249865
129	0x3dc72ea7	0.09725695
130	0xbe573825	-0.21017511
131	0x3e8073e4	0.25088418
132	0xbdd7bc68	-0.105339825
133	0xbd1d4ccf	-0.03840333
134	0x3e1a0785	0.15041931
135	0xbe3e5de9	-0.18590511
136	0xbe53b1a9	-0.2067324
137	0x3d966cd9	0.0734498
138	0x3bb83fbe	0.005622833
139	0x3d3a05b4	0.045415595
140	0xbd871cbd	-0.06597278
141	0xbe496cb0	-0.19670367
142	0x3d5a0941	0.05323148
143	0x3c8c6ace	0.017140772

cnn_backbone.0.bias f4 [16]
0	0x3e5ea845	0.21743877
1	0xbe9f1e12	-0.3107763
2	0xbe3d7940	-0.18503284
3	0x3c062f74	0.008190025
4	0xbdcb25db	-0.0991933
5	0xbe402d24	-0.1876722
6	0x3e54f673	0.20797138
7	0x3e7317c7	0.23739539
8	0x3d8df210	0.069309354
9	0x3d3cbcd3	0.046078514
10	0xbdf38a74	-0.11891642
11	0xbda9526d	-0.082676746
12	0x3b15cde1	0.002285831
13	0x3e845741	0.2584782
14	0xbcb09486	-0.021555196
15	0xbe8ea33b	-0.2785891

cnn_backbone.1.weight f4 [16]
0	0x3f7e9a6e	0.9945439
1	0x3f81e108	1.0146799
2	0x3f7e4c52	0.99335206
3	0x3f7f1b66	0.9965118
4	0x3f7f8cc5	0.9982417
5	0x3f8072ea	1.0035069
6	0x3f7f0cbd	0.9962881
7	0x3f804d2f	1.0023555
8	0x3f7fd197	0.99929184
9	0x3f8099da	1.0046952
10	0x3f7f2ac9	0.9967466
11	0x3f7e4f88	0.99340105
12	0x3f817512	1.0113852
13	0x3f7d3b56	0.98918664
14	0x3f7eaacf	0.99479383
15	0x3f7f7d0b	0.99800175

cnn_backbone.1.bias f4 [16]
0	0x3c98278a	0.018573541
1	0xbaa5dd21	-0.0012654403
2	0xbbaa8c1b	-0.00520469
3	0x3c50ab33	0.01273613
4	0x3bac1771	0.005251818
5	0x3c0d00df	0.008606165
6	0x3b302890	0.0026879646
7	0xbb785fe4	-0.0037898952
8	0x3c8a4db8	0.016882762
9	0xbc33d9e5	-0.010977243
10	0x3bbcb7f5	0.005759234
11	0xbc0e5a37	-0.008688501
12	0xbbb2fd92	-0.005462357
13	0xbc9b0298	-0.018922135
14	0xbb3df7a5	-0.002898672
15	0xbbf2db22	-0.0074113766

cnn_backbone.1.running_mean f4 [16]
0	0xc07d3a7a	-3.9566941
1	0xc0030f58	-2.0478115
2	0x408eead6	4.4661665
3	0xc142a3aa	-12.164957
4	0xc11313df	-9.192351
5	0xbf6d0de9	-0.9259935
6	0x3f630f51	0.88695246
7	0xc0936ffb	-4.6074195
8	0xc081ac92	-4.0523157
9	0x401dcf32	2.4657712
10	0x40e8462d	7.2585664
11	0x4101c682	8.110964
12	0x3fe53df1	1.7909528
13	0x40b23c39	5.5698514
14	0xc07650f9	-3.8486922
15	0x404154df	3.0208051

cnn_backbone.1.running_var f4 [16]
0	0x412596ae	10.349287
1	0x401b5a32	2.42738
2	0x414a95f3	12.661609
3	0x42ab2ab3	85.5834
4	0x4240b8ca	48.180458
5	0x3f86d388	1.0533304
6	0x3f3ab85d	0.72937566
7	0x4160d2ff	14.051513
8	0x411fb391	9.981339
9	0x406807b4	3.6254702
10	0x41fb423f	31.407347
11	0x421fd5f1	39.958927
12	0x403228ef	2.7837484
13	0x4183fcef	16.498503
14	0x410cd7fd	8.8027315
15	0x40cfaf0e	6.490119

cnn_backbone.3.weight f4 [16, 16, 3, 3]
0	0x3d6a83a6	0.057254456
1	0x3d27c250	0.040956795
2	0xbc4584ef	-0.01205562
3	0x3c23640e	0.009972585
4	0xbd585d44	-0.05282332
5	0x3c5edb3c	0.013602074
6	0x3cf4f8cb	0.02990379
7	0xbcc4dd1a	-0.02403121
8	0xbcf6e4fe	-0.030138489
9	0xbd663acd	-0.05620842
10	0xbd9ecb96	-0.07753675
11	0x3aae4762	0.001329642
12	0x3db02c47	0.08602195
13	0xbcd2f217	-0.025750203
14	0x3d4192f0	0.04725927
15	0x3ccb5e01	0.024825098
16	0x3d9c9680	0.07645893
17	0x3b9dc448	0.0048146583
18	0xbd77fb39	-0.06054232
19	0xbda22d24	-0.07918766
20	0x3dabdf87	0.08392244
21	0xbd8ba53a	-0.06818624
22	0x3da71bd2	0.08159603
23	0xbd0b7127	-0.034043457
24	0x3c508f6f	0.01272951
25	0x3c495407	0.0122881
26	0x3d894245	0.06702093
27	0xbd592b91	-0.053020064
28	0xbc9a4a8f	-0.01883438
29	0xbda1ea0a	-0.079059675
30	0x3d84096d	0.0644711
31	0x3c59da51	0.01329668
32	0x3d63ce3d	0.055616606
33	0xbae80df2	-0.0017704351
34	0xbd8cf72d	-0.068830825
35	0xbd37e5c0	-0.04489684
36	0xbd65bd54	-0.05608876
37	0xbda36f5c	-0.079802245
38	0x3d872f15	0.06600777
39	0x3d9b5d9e	0.075862154
40	0xbd531cd5	-0.05154117
41	0xbd87d53a	-0.066324666
42	0x3d9cddc0	0.07659483
43	0x3d64d505	0.055867214
44	0xbd8c5bc8	-0.068534434
45	0x3d526e2f	0.05137461
46	0x3cdfe4db	0.027330806
47	0x3d501ac2	0.05080677
48	0x3c95373f	0.01821482
49	0xbcb45f50	-0.022018105
50	0x3cbc0e9a	0.022956181
51	0x3d8bdb56	0.068289444
52	0xbd71a804	-0.058998123
53	0xbda51e36	-0.08062403
54	0x3c6de941	0.014520944
55	0x3d95cf38	0.073149145
56	0x3d5bc3e6	0.05365362
57	0xbd0cc6bc	-0.034369215
58	0xbd9e6ac2	-0.07735206
59	0x3cce18d2	0.02515832
60	0xbd4aeb2c	-0.049540684
61	0xbc75f9a3	-0.015013131
62	0xbd1a8158	-0.037721008
63	0x3c170274	0.009216893
64	0xbd400839	-0.04688284
65	0x3da22997	0.07918089
66	0x3cc357c0	0.023845553
67	0x3d15a294	0.036532
68	0x3ba6284c	0.0050707217
69	0x3c989284	0.018624552
70	0x3cceda20	0.025250494
71	0xbd5b30c9	-0.053513322
72	0x3c35f1de	0.011105029
73	0xbd8cb778	-0.068709314
74	0x3c301936	0.010748198
75	0x3d91c8ee	0.071184024
76	0x3c230add	0.0099513205
77	0x3c8caf21	0.017173352
78	0xbca7df2c	-0.020492159
79	0xbda1b105	-0.07895092
80	0xbd09e690	-0.033667147
81	0xbd9fc7e0	-0.07801795
82	0xbcecfda4	-0.028929539
83	0xbd9fd228	-0.07803756
84	0xbd061420	-0.032734036
85	0x3d0dbcca	0.03460387
86	0xbd705caf	-0.05868214
87	0xbd4c59cc	-0.049890324
88	0xbc3275da	-0.010892356
89	0x3cd54add	0.026036674
90	0x3d0dfa19	0.03466234
91	0xbd8e4e34	-0.0694851
92	0xbc43e0ab	-0.0119554205
93	0x3db20e27	0.086941056
94	0x3ca810b4	0.020515777
95	0x3d11b8b5	0.03557654
96	0x3d9e757f	0.07737254
97	0x3dac30d1	0.084077485
98	0x3d225a1b	0.039636713
99	0x3d6dd3f0	0.058063447
100	0xbd648ddb	-0.055799346
101	0x3d90d564	0.07071951
102	0x3d9432dc	0.07236263
103	0xbd963019	-0.07333393
104	0x3d979974	0.07402316
105	0xbd5f4423	-0.05450834
106	0xbd760902	-0.060067184
107	0xbbb73a05	-0.0055916333
108	0x3d1065a9	0.0352532
109	0xbd8d4bfb	-0.06899258
110	0xbd4ced59	-0.05003104
111	0x3d56830a	0.052371062
112	0x3c1b3c95	0.009474893
113	0xbc69e64d	-0.014276099
114	0xbd6904dd	-0.056889404
115	0x3d396190	0.04525906
116	0x3cb29383	0.021798855
117	0xbd6cbfe1	-0.057800177
118	0x3c4e8359	0.012604558
119	0xbd8e45b0	-0.069468856
120	0x3bbe6a67	0.005811024
121	0x3ccec1cc	0.025238894
122	0x3b72e72e	0.0037064063
123	0x3d89f60c	0.06736383
124	0x3d6b21df	0.05740535
125	0x3d9f0442	0.07764484
126	0x3c97a781	0.01851249
127	0xbd82b791	-0.06382669
128	0xbc8578d7	-0.016292972
129	0x3caa17df	0.020763336
130	0xbd9e8a2a	-0.077411965
131	0x3d238cf4	0.039929345
132	0x3cc8b88f	0.024502067
133	0x3c9c7645	0.019099364
134	0x3cc9bdaf	0.024626581
135	0xbce0b326	-0.027429175
136	0x3d9037e1	0.07041908
137	0x3d91d5fa	0.07120891
138	0xbd3ceabc	-0.046122298
139	0x3bd2e3b3	0.0064358353
140	0x3d2177f5	0.03942104
141	0x3d90d211	0.07071317
142	0x3c212857	0.009836278
143	0x3cfcbd00	0.030851841
144	0xbd852a9e	-0.06502269
145	0x3d14e6e9	0.036353026
146	0x3d255546	0.040364526
147	0x3d3600de	0.04443442
148	0xbce086b8	-0.027407989
149	0x3dad3d3c	0.08458945
150	0xbc367e7b	-0.011138554
151	0xbda0753b	-0.0783486
152	0xbd9e673d	-0.07734535
153	0x3da31a69	0.07964022
154	0x3c885ed1	0.016646774
155	0x3d4730e5	0.048630614
156	0x3d0c82fc	0.034304604
157	0x3c92ecb4	0.017935134
158	0x3d873eb8	0.066037595
159	0x3d6d714f	0.057969388
160	0xbd21ef61	-0.03953493
161	0xbbc49197	-0.005998801
162	0xbd886027	-0.066589646
163	0x3ae08f79	0.0017132602
164	0x3d808b0d	0.06276522
165	0xbd482971	-0.048867647
166	0x3ac58f99	0.0015072703
167	0x3cfdcced	0.030981505
168	0xbcc07a18	-0.023495719
169	0x39bb964b	0.00035779396
170	0x3d02e93a	0.031960703
171	0xbd82c9b7	-0.0638613
172	0xbc529680	-0.012853265
173	0x3db1b786	0.086775824
174	0xbd463216	-0.04838761
175	0x3d8001b9	0.062503286
176	0x3d01a218	0.031648725
177	0x3cf9717e	0.030449625
178	0xbd375abb	-0.04476426
179	0xbd080d3a	-0.03321574
180	0x3c9bd6c7	0.019023312
181	0xbc173859	-0.009229743
182	0x3d68f51c	0.05687438
183	0x3c91a803	0.01778031
184	0xbd993764	-0.07481268
185	0xbc94de84	-0.01817251
186	0xbdaf122b	-0.08548387
187	0x3cb7637c	0.022386305
188	0x3d098ed6	0.033583485
189	0xbd08ce9b	-0.03340016
190	0xbd868c43	-0.065697215
191	0x3b69e887	0.0035691576
192	0xbc55f0ca	-0.013057897
193	0x3d010a6a	0.031504072
194	0x3d4d88fd	0.05017947
195	0xbcb46eb2	-0.02202544
196	0x3d87922e	0.066196784
197	0xbdab8e80	-0.08376789
198	0xbd89f03a	-0.06735273
199	0x3c7579a2	0.014982613
200	0x3d74021f	0.059572335
201	0x3b01c9d9	0.0019804148
202	0x3d097dc4	0.033567205
203	0x3cf48ffa	0.02985381
204	0x3d2d6339	0.042330954
205	0x3be9ace2	0.007131205
206	0x3d34d786	0.04415085
207	0x3d9f823c	0.07788512
208	0x3cab6e0f	0.020926503
209	0x3dad61bf	0.08465909
210	0x3d02ce2e	0.03193491
211	0xbd286b0a	-0.041117705
212	0x3d2f3c75	0.042782266
213	0xbd5f05b6	-0.054448806
214	0xbda193d2	-0.078895226
215	0xbd7e208e	-0.062042765
216	0x3d3dc6c3	0.046332132
217	0xbd8a8f24	-0.06765583
218	0x3d882f50	0.06649649
219	0x3d939ff8	0.07208246
220	0xbc0cf6df	-0.0086037805
221	0xbd3c30e0	-0.04594505
222	0xbd30f75e	-0.043204658
223	0x3d172fec	0.036910936
224	0xbdb29723	-0.08720233
225	0xbd383fe5	-0.04498281
226	0xbb3a96fa	-0.0028471337
227	0xbd9087a1	-0.07057119
228	0x3cd15c57	0.025556726
229	0x3c33c10a	0.010971317
230	0xbd70004f	-0.058594044
231	0xbc9285fc	-0.017886154
232	0xbcd5ff76	-0.02612279
233	0xbd5a0043	-0.053222906
234	0x3da17c26	0.078850076
235	0x3cf5658e	0.029955652
236	0x3c1814f5	0.00928234
237	0x3d93dbba	0.07219644
238	0xbcca8455	-0.024721304
239	0x3d6f406d	0.05841105
240	0x3da8cc46	0.08242087
241	0x3c62f657	0.013852677
242	0x3d8e5df0	0.06951511
243	0xbcb62b99	-0.022237586
244	0x3d514604	0.051092163
245	0xbd565d90	-0.052335322
246	0xbd45613c	-0.048188433
247	0xbd8bbb80	-0.06822872
248	0x3d63c997	0.055612173
249	0x3ccd658a	0.025072832
250	0xbda1fcde	-0.07909559
251	0x3d025de0	0.031827807
252	0x3d9e5b7f	0.07732295
253	0xbd2f2445	-0.0427592
254	0xbb96aa14	-0.0045979116
255	0x3d81f2ec	0.06345162

cnn_backbone.3.bias f4 [16]
0	0xbda1af18	-0.078947246
1	0xbd515ee8	-0.0511159
2	0xbb86fe0a	-0.0041196393
3	0x3d55d857	0.05220827
4	0xbd8d2ee5	-0.0689371
5	0x3d189b07	0.03725722
6	0xbc68bf51	-0.01420577
7	0x3db8cbfa	0.090232804
8	0x3d5cb576	0.053883992
9	0x3c85ef48	0.01634945
10	0xbd6f17ff	-0.058372494
11	0x3cf85848	0.030315533
12	0xbdb32225	-0.08746747
13	0xbbba16b7	-0.0056789774
14	0x3c52ee59	0.012874209
15	0x3d8e00e9	0.06933767

cnn_backbone.4.weight f4 [16]
0	0x3f8026c9	1.0011836
1	0x3f8014e1	1.0006372
2	0x3f7d9e0d	0.9906929
3	0x3f7f9238	0.9983249
4	0x3f80d6a1	1.00655
5	0x3f805b30	1.0027828
6	0x3f80f13f	1.0073622
7	0x3f7f82e1	0.9980908
8	0x3f8056b3	1.0026459
9	0x3f800f9c	1.0004764
10	0x3f7f874c	0.9981582
11	0x3f81570f	1.0104693
12	0x3f7feacb	0.9996764
13	0x3f7e3fa3	0.9931585
14	0x3f7d08fd	0.9884184
15	0x3f7feaa5	0.99967414

cnn_backbone.4.bias f4 [16]
0	0x3b1f6458	0.0024321284
1	0xbbe5193f	-0.006991535
2	0xbc42c2d0	-0.011887267
3	0xbc2427e9	-0.010019281
4	0x3b240d2a	0.002503226
5	0xbadf587d	-0.0017039921
6	0x3a3fb315	0.0007312757
7	0xbbe6db09	-0.007045154
8	0x3b46d62f	0.0030340066
9	0x3bdb6d86	0.006696406
10	0xbb85e9bc	-0.004086701
11	0xbb386c61	-0.002814077
12	0xbbb70807	-0.0055856737
13	0xbc47cc1b	-0.012194659
14	0xbc6f9587	-0.014623052
15	0x3bb3a133	0.005481863

cnn_backbone.4.running_mean f4 [16]
0	0x3d4aa564	0.049474135
1	0x3d0fc41f	0.035099145
2	0xbf1dc5a8	-0.61629725
3	0x3ee1f7ad	0.44134274
4	0xbe82f9b0	-0.2558112
5	0xbeb21720	-0.34783268
6	0x3bbf2fdd	0.005834563
7	0x3ed8f40c	0.42373693
8	0xbe7bdb4b	-0.24595372
9	0xbf31bf82	-0.6943284
10	0xbf327e3e	-0.6972388
11	0x3e81a2e2	0.25319582
12	0x3d4a5885	0.049400825
13	0x3d26fefb	0.040770512
14	0x3ef5a58b	0.47977862
15	0x3dada2af	0.08478295

cnn_backbone.4.running_var f4 [16]
0	0x3d5162a0	0.051119447
1	0x3cfe1633	0.031016445
2	0x3d9f437d	0.07776544
3	0x3e35c78b	0.17751901
4	0x3d532bc0	0.051555395
5	0x3f0a8e2d	0.54123193
6	0x3c9b0935	0.018925289
7	0x3e86dc9d	0.2634019
8	0x3e2f3c73	0.17112903
9	0x3e36c57a	0.17848769
10	0x3e476c2f	0.19474863
11	0x3dc13a00	0.09434891
12	0x3da5aea4	0.08089951
13	0x3d912340	0.070868015
14	0x3e6fdf78	0.2342509
15	0x3ebf1bd9	0.37325934

cnn_backbone.7.weight f4 [32, 16, 3, 3]
0	0xbc76eb9b	-0.015070821
1	0x3c375b59	0.011191213
2	0xbd716964	-0.0589384
3	0xbb0fe60a	-0.0021957182
4	0xbc58877a	-0.013215894
5	0xbd7ce754	-0.06174405
6	0x3d5c2dc9	0.0537546
7	0x3d2a5b93	0.04159124
8	0x3d41f277	0.047350373
9	0xbd1a0f26	-0.037612103
10	0xbd33ca3b	-0.043894034
11	0x3c29c1ce	0.010361148
12	0x3ca2f0b4	0.019890167
13	0x3cce83cb	0.025209328
14	0xbd44c314	-0.048037603
15	0xbc71001e	-0.014709501
16	0xbcbe565c	-0.023234539
17	0xbd969da8	-0.07354289
18	0xbd57c2a2	-0.05267585
19	0x3d068b7d	0.03284787
20	0xbd721e1f	-0.059110757
21	0xbd8a2bd5	-0.067466415
22	0xbd5a26b0	-0.05325955
23	0xbd1af9a5	-0.037835736
24	0x3d833816	0.06407182
25	0xbd436300	-0.047701836
26	0xbdb23985	-0.08702377
27	0x3d8e3a3f	0.06944703
28	0x3bb90b46	0.005647096
29	0xbd4b569a	-0.049643137
30	0xbc785126	-0.015156066
31	0x3d9f21dc	0.0777013
32	0xbd82e4e2	-0.06391312
33	0xbccc7e07	-0.024962438
34	0x3bab400e	0.005226142
35	0x3d1819c2	0.03713394
36	0x3c1502e8	0.009094931
37	0x3d0dc730	0.034613788
38	0xbd4a0270	-0.04931873
39	0xbd80b9d0	-0.06285441
40	0xbc5b618f	-0.013389959
41	0xbd83f92d	-0.06444011
42	0x3d15a730	0.036536396
43	0x3d64d83d	0.055870283
44	0x3d2572ac	0.040392563
45	0xbd9160de	-0.07098554
46	0x3d4986a5	0.049200673
47	0x3d0b8cf9	0.03406999
48	0xbcea694a	-0.028614659
49	0xbcc85a41	-0.024457099
50	0xbd9f2064	-0.0776985
51	0x3d5a637c	0.053317532
52	0xbaa5a6cc	-0.001263821
53	0x3d1f3337	0.0388672
54	0xbd2e3045	-0.042526502
55	0x3d168ac0	0.036753416
56	0xbdabb51e	-0.08384155
57	0x3d827830	0.0637058
58	0xbcb70f66	-0.02234621
59	0x3d92bd2a	0.071649864
60	0x3d8fa9b6	0.07014792
61	0x3c2c79cd	0.010527086
62	0x3d8b09a8	0.06788951
63	0x3d82c572	0.06385316
64	0xbc9ad508	-0.01890041
65	0x3d440a01	0.047861103
66	0xbc026278	-0.007958047
67	0x3c8c6815	0.017139474
68	0xbbdf721a	-0.006819022
69	0x3d273c2c	0.04082887
70	0x3d89313b	0.06698843
71	0xbd0326e9	-0.03201953
72	0xbd41d3f8	-0.04732129
73	0xbd8ec72b	-0.06971582
74	0x3d3f5933	0.046715926
75	0xbc9ca8ee	-0.01912352
76	0xbd4626bc	-0.048376784
77	0xbdaf9fcb	-0.085754
78	0xbca90d9a	-0.020636369
79	0x3c71afbd	0.014751372
80	0xbd418be8	-0.047252566
81	0x3d87d142	0.0663171
82	0xbd6400cd	-0.055664826
83	0xbbd76c90	-0.006574221
84	0x3cafc834	0.021457769
85	0x3bf0752d	0.007338187
86	0x3c054eab	0.008136432
87	0x3c7a8496	0.0152904
88	0x3d4fa530	0.050694644
89	0xbdac6d20	-0.084192514
90	0xbd159113	-0.036515307
91	0x3d65b97b	0.05608509
92	0xbbdda2c2	-0.006763787
93	0xbb91c38e	-0.0044483608
94	0x3d071a56	0.0329841
95	0x3d4999e3	0.049219023
96	0xbd7a7805	-0.061149616
97	0xbd56b462	-0.05241812
98	0xbd2908cd	-0.04126816
99	0x3d998867	0.0749672
100	0x3d2bdfc9	0.041961465
101	0xbbab4c0d	-0.005227572
102	0x3c949821	0.018138947
103	0xbd35b208	-0.044359237
104	0x3b85686d	0.0040712864
105	0x3d652e07	0.0559521
106	0xbd881261	-0.066441305
107	0xbc7375ca	-0.014859626
108	0x3d8ee5a8	0.06977397
109	0x3d604251	0.054750744
110	0xbbabbb29	-0.005240817
111	0x3cd54490	0.02603367
112	0xbdaa08d2	-0.083024636
113	0xbb43a2c7	-0.0029851662
114	0xbc872bad	-0.016500318
115	0x3cd16406	0.02556039
116	0xbd8bbd57	-0.06823223
117	0x3d9a51b3	0.07535114
118	0xbc8b8701	-0.017032148
119	0x3cd16b03	0.025563722
120	0x3d24331b	0.0400878
121	0x3cd23eb8	0.025664672
122	0xbd8e3f12	-0.069456235
123	0x3c2510b5	0.010074784
124	0x3d85b8d1	0.065293916
125	0xb902ab04	-0.00012461474
126	0xbd7c904f	-0.06166106
127	0x3b4d1f74	0.0031299265
128	0x3d6f4f75	0.058425386
129	0x3d62fc3d	0.055416334
130	0x3cefb4d2	0.029261027
131	0xbcb1403c	-0.021637075
132	0x3d98edf6	0.074672624
133	0xbb87292a	-0.00412478
134	0x3bf734d2	0.0075441385
135	0xbd8618a7	-0.06547671
136	0x3ce291c5	0.027657399
137	0x3c672702	0.014108421
138	0x3caccd9f	0.021094142
139	0xbd36c1ef	-0.044618543
140	0xbdaed2b7	-0.085362844
141	0x3d19176d	0.037375856
142	0xbd8189d5	-0.063251175
143	0x3c65ee22	0.014033826
144	0x3d96bf8d	0.07360754
145	0xbce0b164	-0.027428336
146	0x3d1dd2e8	0.038531214
147	0xbd074c0f	-0.03303152
148	0x3db79e08	0.08965689
149	0x3d86dff9	0.06585688
150	0xbd8bf014	-0.06832901
151	0xbd4fb964	-0.05071391
152	0x3cf6c9f6	0.0301256
153	0xbd2f2798	-0.04276237
154	0xbdb87a1a	-0.09007664
155	0xbd1a6248	-0.037691385
156	0xbcb159d3	-0.021649277
157	0x3b618e55	0.0034417112
158	0x3d30b8a8	0.043144852
159	0x3c81bd08	0.015837207
160	0x3d082e49	0.033247266
161	0xbc67cafd	-0.014147517
162	0xbc985b49	-0.018598216
163	0xbd3b670b	-0.045752566
164	0x3ba62bee	0.005071155
165	0x3da07c77	0.0783624
166	0x3ccaac14	0.024740256
167	0xbd231e21	-0.039823655
168	0x3db1f117	0.08688562
169	0xbd649b49	-0.055812154
170	0x3d17224b	0.03689794
171	0xbd193014	-0.037399366
172	0xbda4e525	-0.08051518
173	0xbd9064ab	-0.07050451
174	0x3c475901	0.012167216
175	0x3d89aad3	0.06722035
176	0xbdab12b1	-0.083531745
177	0xbbce3b29	-0.0062936735
178	0x3d81f975	0.06346408
179	0xbcd03d41	-0.025419833
180	0xbd65c45e	-0.056095473
181	0x3d856f8f	0.06515419
182	0xbcbf8b84	-0.023381956
183	0x3c9c5192	0.019081865
184	0xbd018c7e	-0.031628124
185	0x3d3bfbc9	0.045894418
186	0x3d1e5dc9	0.03866366
187	0xbd9a09b0	-0.07521379
188	0xbbb95cf1	-0.0056568314
189	0xbd970da9	-0.07375652
190	0x3cc9ab68	0.024617866
191	0xbc5ff112	-0.0136683155
192	0xbdaaa438	-0.083321035
193	0xbcacfa9e	-0.021115597
194	0xbd470c33	-0.04859562
195	0xbd3cdc58	-0.046108574
196	0x3cc10f84	0.023566969
197	0x3d6d2ee1	0.057906035
198	0xbd3154ee	-0.043293886
199	0x3d5455ff	0.051839825
200	0xba324ac9	-0.0006801305
201	0xbd10d1fc	-0.035356507
202	0x3c383399	0.011242771
203	0x3d90bf33	0.07067718
204	0xbd2431e9	-0.04008666
205	0x3d79b1b2	0.06096048
206	0x3cd2e584	0.025744207
207	0xbcaccedd	-0.021094734
208	0xbd215b7f	-0.039393898
209	0xbbe1f7ea	-0.0068960087
210	0x3d5573b6	0.052112304
211	0xbccf0576	-0.025271159
212	0xbd3efd43	-0.046628248
213	0xbbc43463	-0.0059876903
214	0xbd0f9a27	-0.03505912
215	0xbd7493f1	-0.0597114
216	0x3baad607	0.0052135023
217	0xbc9271d8	-0.01787655
218	0x3db48d99	0.0881607
219	0x3d3dcd6f	0.046338495
220	0x3b20e6a4	0.0024551535
221	0xbad8b2b2	-0.0016532748
222	0x3c5af8d0	0.013364986
223	0x3c8e904b	0.017402789
224	0x3c338bb3	0.0109586
225	0xbccd20db	-0.02504008
226	0xbd19d13c	-0.037553057
227	0xbb42249f	-0.0029623879
228	0xbcc6a383	-0.02424789
229	0x3d86ff0c	0.06591615
230	0xbbb60e5e	-0.005555912
231	0x3d8c1a53	0.068409584
232	0x3c1f78db	0.009733404
233	0xbc26b0b2	-0.010173963
234	0xbd66b7b4	-0.056327537
235	0x3bb1918e	0.005418963
236	0x3c67e4a8	0.014153637
237	0x3d8cdb03	0.06877711
238	0x3d79f2e1	0.061022643
239	0x3d89fcfc	0.06737706
240	0xbd790401	-0.060794834
241	0xbd1c553e	-0.03816723
242	0x3d4eba75	0.050470788
243	0x3cefbefc	0.029265873
244	0x3d949702	0.07255365
245	0x3cf92192	0.030411515
246	0x3d31086a	0.043220915
247	0xbc01744d	-0.007901263
248	0xbd1d9e37	-0.038480964
249	0x3d9d37b1	0.07676638
250	0x3d6df409	0.05809406
251	0x3d88f743	0.066877864
252	0xbba52421	-0.0050397073
253	0xbd9eb208	-0.077488005
254	0x3cd03458	0.025415584
255	0xbcb8db38	-0.02256547

cnn_backbone.7.bias f4 [32]
0	0x3d922a94	0.071370274
1	0x3da5e506	0.081003234
2	0x3d1a0f15	0.03761204
3	0xbd0de5f8	-0.034643143
4	0x3c64fbeb	0.013976078
5	0xbcd550aa	-0.02603944
6	0xbb8df4d3	-0.004332164
7	0x3c6f7a46	0.014616555
8	0x3d41beae	0.047300987
9	0x3c49e825	0.012323414
10	0xbd84f483	-0.064919494
11	0xbd2ed1c9	-0.042680535
12	0x3d52831b	0.051394563
13	0x3bcbff80	0.0062255263
14	0xbd56c179	-0.052430604
15	0xbcb57247	-0.022149218
16	0x3d307e32	0.0430891
17	0xbda9924f	-0.08279859
18	0xbb514f4b	-0.0031938131
19	0x3d7d5c92	0.06185586
20	0x3dad0ccc	0.084497064
21	0xbc93da56	-0.018048447
22	0x3d9227f0	0.07136524
23	0x3d9ce948	0.07661682
24	0x3bef35dd	0.007300122
25	0x3d7aee98	0.061262697
26	0xbcd3a7b5	-0.025836805
27	0x3d027de6	0.031858347
28	0x3d3f2a32	0.0466711
29	0xbc1185ab	-0.008881967
30	0x3d8185cd	0.063243486
31	0x3d099290	0.03358704

cnn_backbone.8.weight f4 [32]
0	0x3f7db852	0.99109375
1	0x3f7de6c5	0.9918025
2	0x3f8079b2	1.0037138
3	0x3f7e116e	0.99245346
4	0x3f7fe910	0.99965
5	0x3f800faa	1.000478
6	0x3f813fda	1.0097611
7	0x3f7be1a1	0.9839116
8	0x3f7ee062	0.9956113
9	0x3f807f82	1.0038912
10	0x3f8139f6	1.0095813
11	0x3f7d746d	0.99005777
12	0x3f7f8b4e	0.9982194
13	0x3f805ebf	1.0028914
14	0x3f810a7b	1.0081323
15	0x3f818272	1.0117934
16	0x3f80804d	1.0039154
17	0x3f818919	1.0119964
18	0x3f81e585	1.0148169
19	0x3f7eea2a	0.99576056
20	0x3f7fcb23	0.9991934
21	0x3f7efde8	0.9960618
22	0x3f7c9f7b	0.9868085
23	0x3f7def69	0.99193436
24	0x3f808b55	1.0042521
25	0x3f7ff71f	0.9998645
26	0x3f80f5e4	1.007504
27	0x3f7dd858	0.9915824
28	0x3f807cab	1.0038046
29	0x3f7ded74	0.9919045
30	0x3f7c8f9f	0.9865665
31	0x3f7fbfb1	0.9990187

cnn_backbone.8.bias f4 [32]
0	0xbc0a0d81	-0.008426071
1	0xbc0be059	-0.008537375
2	0xbba37f93	-0.0049895733
3	0xbc2c191e	-0.010504035
4	0xbc8becac	-0.017080627
5	0x3b46fbc6	0.003036247
6	0x3bea1af0	0.0071443245
7	0xbb7e6e15	-0.0038822938
8	0xbcaa9004	-0.020820625
9	0xbc274321	-0.010208876
10	0x3b0e8648	0.0021747518
11	0xbc1fce1d	-0.009753731
12	0x3a6f1337	0.00091199897
13	0xbc74e536	-0.014947226
14	0x3ba1babf	0.004935592
15	0x3c256c07	0.0100965565
16	0xbc80bee3	-0.015716022
17	0x3a40bddf	0.0007352512
18	0xbc87d963	-0.01658315
19	0x3ac420c7	0.0014963382
20	0xbc0b125f	-0.008488267
21	0xbbc791de	-0.006090387
22	0xbc31d452	-0.010853844
23	0xbbe8272f	-0.007084749
24	0x3bd74dba	0.006570545
25	0xbb945b57	-0.00452749
26	0x3bca5fac	0.0061759558
27	0xbbd6d05a	-0.006555599
28	0x3b288c9d	0.0025718578
29	0xbcb052eb	-0.021523913
30	0xbc0315f0	-0.008000836
31	0x3b585ecc	0.0033015488

cnn_backbone.8.running_mean f4 [32]
0	0xbcf6fe62	-0.030150596
1	0x3d84f3a3	0.064917825
2	0xba573caa	-0.0008210639
3	0x3b4e07f2	0.0031437841
4	0x3dda4838	0.10658306
5	0x3bbdf917	0.005797516
6	0xbcc97e26	-0.024596285
7	0x3e9ab73b	0.3021792
8	0x3ee0fae7	0.43941423
9	0x3ed77344	0.42080128
10	0xbe54de2e	-0.2078788
11	0xbade7422	-0.0016971866
12	0x3ee89f43	0.45434007
13	0x3f23ca45	0.63980514
14	0xbcd5056d	-0.026003564
15	0x3e1b2b38	0.15153205
16	0x3d8b4b9f	0.06801533
17	0xbead6ace	-0.33870548
18	0x3e3a4cb7	0.18193327
19	0xbd71e265	-0.059053797
20	0x3f59193a	0.8480412
21	0x3c372178	0.011177413
22	0x3d4c7edc	0.04992567
23	0x3e746349	0.23866
24	0xbd1075b2	-0.035268493
25	0xbed34eaf	-0.41270968
26	0xbee544c3	-0.44779024
27	0x3eefe3c4	0.4685346
28	0x3f18827a	0.5957409
29	0xba88aef9	-0.0010428122
30	0xbf11201e	-0.5668963
31	0xbec21c3d	-0.3791217

cnn_backbone.8.running_var f4 [32]
0	0x3e821af5	0.25411192
1	0x3d87d3aa	0.066321686
2	0x3d538748	0.051642686
3	0x3e2ab738	0.16671455
4	0x3db80a85	0.089863814
5	0x3e21b822	0.15792897
6	0x3d6a1815	0.057151873
7	0x3e0c1674	0.1368044
8	0x3ea78f4d	0.32726517
9	0x3e22ffe3	0.15917926
10	0x3deb01bd	0.11474941
11	0x3daec39c	0.08533403
12	0x3e643852	0.2228711
13	0x3e57733f	0.21040057
14	0x3da30ad0	0.07961047
15	0x3df5cc06	0.12001805
16	0x3d0d8e94	0.0345598
17	0x3df9bfbe	0.12194775
18	0x3dac6698	0.08418006
19	0x3dea9e40	0.11455965
20	0x3eefc319	0.46828535
21	0x3dd04e65	0.101712026
22	0x3dc3a1f2	0.09552373
23	0x3db35681	0.08756734
24	0x3d972bcb	0.073814
25	0x3d889ee3	0.0667093
26	0x3dcd387a	0.10020538
27	0x3f0458cf	0.5169801
28	0x3e1a7852	0.15084961
29	0x3dcaa349	0.098944254
30	0x3f02be58	0.5107169
31	0x3e492b12	0.19645336

cnn_backbone.10.weight f4 [32, 32, 3, 3]
0	0xbc995861	-0.0187189
1	0xbd18e676	-0.03732916
2	0x3cb147b6	0.02164064
3	0x3bfc105b	0.0076923794
4	0xbd3aa249	-0.045564923
5	0x3a3c2352	0.0007176894
6	0x3d47e071	0.04879803
7	0x3d8c10fe	0.068391785
8	0xbc5aca76	-0.0133539345
9	0x3cc9246a	0.024553496
10	0x3c840625	0.016116211
11	0x3c3dc6d7	0.011583052
12	0xbcee45da	-0.029086042
13	0xbce64829	-0.02811058
14	0xbd743981	-0.059625152
15	0xbd649b47	-0.055812147
16	0xbd0e9d99	-0.034818266
17	0xbd03ab59	-0.03214583
18	0xbd28d4ea	-0.041218676
19	0x3b15de1d	0.0022867986
20	0xbd04dd79	-0.032437775
21	0xbd67eb08	-0.056620628
22	0x3d16d2fc	0.036822304
23	0xbd4e7e0c	-0.050413176
24	0xbd358f0b	-0.04432587
25	0xbd4efe02	-0.05053521
26	0xbd615221	-0.055009965
27	0xbd274f2a	-0.04084698
28	0x3cc48484	0.02398897
29	0x3d11a270	0.035555303
30	0xbcf48a05	-0.02985097
31	0xbd41ccee	-0.047314577
32	0xbcb1f376	-0.021722537
33	0x3d320986	0.043466114
34	0x3c2c235c	0.010506477
35	0x3b56cdb3	0.0032776415
36	0xb9dadf3e	-0.0004174653
37	0xbd147a16	-0.036249243
38	0xbcb6245d	-0.022234136
39	0x3cee262d	0.029070938
40	0x3ce2b566	0.027674388
41	0xbca8e33a	-0.020616163
42	0x3d1d785f	0.038444873
43	0x3d4ff9e3	0.05077542
44	0x3ca8cba4	0.020604916
45	0x3d19ae41	0.037519697
46	0x3c961b70	0.01832363
47	0x3c796c5a	0.015223587
48	0xbc373bb4	-0.011183668
49	0xbc64eac0	-0.013971984
50	0xbcd302d6	-0.025758188
51	0x3d3fad78	0.046796292
52	0x3d683cb6	0.056698523
53	0x3aa30c1d	0.0012439523
54	0x3cb0d386	0.021585237
55	0xbd0da0d1	-0.034577195
56	0xbd642c0c	-0.05570607
57	0xbd83d1c4	-0.06436494
58	0xbd6ca593	-0.05777509
59	0x3d5ecd90	0.05439526
60	0xbcb0b649	-0.021571295
61	0xbd80b6b5	-0.062848486
62	0xbb8f9120	-0.004381314
63	0xbc403cfb	-0.011733289
64	0xbd1cd8d8	-0.038292736
65	0x3c05bf64	0.008163307
66	0x3c6eb61a	0.014569784
67	0x382441a0	3.9161765e-05
68	0x3ce84997	0.028355403
69	0x3d72917d	0.05922078
70	0x3d683a85	0.056696434
71	0xbcd2e089	-0.025741832
72	0xbcce98cb	-0.025219342
73	0xbd56b49c	-0.052418336
74	0x3cf2e3b7	0.029649599
75	0x3d605609	0.05476955
76	0x3d62b17b	0.05534504
77	0xbb8cb73b	-0.0042943037
78	0x3d5bb55d	0.05363976
79	0x3c40593f	0.011740028
80	0x399e1cbb	0.00030157514
81	0x3d2090aa	0.039200462
82	0xbd0859e3	-0.033288848
83	0x3d516f6d	0.051131655
84	0xb77df175	-1.5136194e-05
85	0xbd52efec	-0.05149834
86	0xbd3dfc72	-0.04638333
87	0x3d42031e	0.047366254
88	0xbd25c24a	-0.04046849
89	0xbd4a36df	-0.049368735
90	0xbc5b4d88	-0.013385184
91	0xbd2a736b	-0.041613977
92	0x3d22ba8b	0.039728682
93	0xbcde31c7	-0.027123345
94	0xb96daff9	-0.00022667636
95	0x3c904604	0.017611511
96	0xbd60088b	-0.054695647
97	0x3d8a0cad	0.06740699
98	0x3d44d6fe	0.048056595
99	0xbcd80abc	-0.026372306
100	0xbc77cc0f	-0.015124335
101	0x3c59a13a	0.013283068
102	0x3c6e431c	0.014542367
103	0xbd438a31	-0.04773921
104	0xbd7f07e5	-0.06226339
105	0xbccba862	-0.024860565
106	0x3d4fa121	0.050690774
107	0xbd5100f7	-0.05102631
108	0x3c97c596	0.018526834
109	0x3d517cfb	0.05114458
110	0xbc97d4c7	-0.018534077
111	0xbccd8676	-0.02508853
112	0xbc84a896	-0.01619367
113	0x3cde029f	0.02710086
114	0x3d706928	0.058694035
115	0xbd1a0574	-0.037602857
116	0xbc2bf26e	-0.010494811
117	0xbc842068	-0.016128734
118	0xbd4ff3c8	-0.050769597
119	0xbc7964ff	-0.015221833
120	0xbcc760d7	-0.024338169
121	0xbd5cf491	-0.053944174
122	0x3d51400c	0.05108647
123	0x3ce8e58a	0.028429765
124	0xbcfd9eae	-0.030959453
125	0x3d304f81	0.04304457
126	0xbbd93c53	-0.0066295057
127	0x3d3ab4b7	0.0455825
128	0xbc134391	-0.008988277
129	0xbc98bb68	-0.01864405
130	0x3c5ede69	0.013602831
131	0xbd21e509	-0.039525066
132	0x3d77bef6	0.06048485
133	0xbd0804a1	-0.03320754
134	0x3d097713	0.033560824
135	0x3c8dac72	0.017294142
136	0xbd061bbc	-0.032741293
137	0x3d3aee58	0.04563746
138	0x3ba5e290	0.0050624087
139	0x3c0732ec	0.008251887
140	0x3cf03f3c	0.029327027
141	0xbbf99b1e	-0.0076173684
142	0x3d3a585d	0.045494426
143	0x3c29cbda	0.010363543
144	0xbc9a8b4e	-0.018865254
145	0xbcab8de8	-0.02094169
146	0xbc4bdbcf	-0.012442543
147	0x3cb75824	0.022380896
148	0xbd652f09	-0.05595306
149	0x3c738510	0.014863268
150	0x3d4d709c	0.05015622
151	0x3d3af339	0.04564211
152	0x3d1eda95	0.038782675
153	0xbcddc767	-0.027072622
154	0xbd1dd02e	-0.038528614
155	0x3d2860e6	0.041108035
156	0x3d42ef44	0.047591463
157	0xbcf5580d	-0.029949212
158	0x3d1c4b6f	0.038157877
159	0xbd8935cd	-0.06699715
160	0x3c306e92	0.0107685495
161	0x3cc7ab17	0.024373574
162	0xbcabe4bf	-0.020983098
163	0xbcf62fcb	-0.030052086
164	0xbbfec130	-0.0077744946
165	0xbc9c315a	-0.019066501
166	0x3cde0f33	0.027106857
167	0x3c48a258	0.012245737
168	0xbd5a43c4	-0.053287283
169	0x3d1084c9	0.035282884
170	0xbd0c4512	-0.034245558
171	0xbc2edde3	-0.010673019
172	0xbcf76047	-0.030197276
173	0xbd16b2fa	-0.03679178
174	0xbc9d6a29	-0.01921566
175	0x3d523ea3	0.051329266
176	0x3d1be67b	0.0380616
177	0xbd6ad593	-0.057332586
178	0xbbc022f6	-0.0058635427
179	0x3b3a0e03	0.00283897
180	0x3a5bfa03	0.00083914417
181	0x3d3e7660	0.04649961
182	0x3d23030b	0.039797824
183	0xbcfcdfac	-0.030868374
184	0xbd56d877	-0.05245253
185	0x3d1cf63c	0.038320765
186	0xbd29fe5d	-0.041502345
187	0x3a77e4fc	0.00094564236
188	0x3c5ce6af	0.013482734
189	0x39ed66f0	0.00045280857
190	0xbc743f6b	-0.014907698
191	0x3d031e23	0.032011162
192	0xbcdd0e64	-0.026984401
193	0x3d0a1f2b	0.03372113
194	0x3bb80712	0.005616077
195	0xbd321484	-0.043476596
196	0x3d4229b5	0.047403056
197	0x3bc44316	0.0059894426
198	0x3d03ea7f	0.032206055
199	0x3b9dbc14	0.0048136804
200	0xbbdabc21	-0.0066752587
201	0x3c2abfda	0.010421718
202	0xbd134631	-0.03595561
203	0x3d32dbec	0.043666765
204	0xbcf2529f	-0.029580412
205	0x3c0fdd13	0.008780736
206	0xbd05fb19	-0.03271017
207	0xbd19a600	-0.037511826
208	0xbd4c3c35	-0.049862105
209	0xbd3f0391	-0.04663426
210	0xbc1de2d1	-0.009636597
211	0x39bbe95b	0.00035841283
212	0xbbeac97c	-0.007165132
213	0x3c1205a7	0.00891248
214	0xbd337736	-0.04381486
215	0x3ceeda7c	0.029156916
216	0x3d0be8ff	0.03415775
217	0x3c5ad489	0.013356336
218	0xbc52b179	-0.012859696
219	0x3d51b5e7	0.051198866
220	0xbb94557b	-0.0045267916
221	0xbcb50e8e	-0.022101667
222	0xbd4212aa	-0.04738108
223	0x3d1ee35b	0.03879104
224	0xbcbe0fa5	-0.02320082
225	0x3d21a79c	0.039466485
226	0x3d634ba0	0.055492043
227	0xbcefc843	-0.029270297
228	0x3d609652	0.054830857
229	0xbce26b7a	-0.02763914
230	0xbc5a455e	-0.0133222025
231	0x3c8e49d7	0.017369194
232	0xbd2bef4d	-0.041976262
233	0xbc57aad2	-0.013163285
234	0x3ad903cb	0.0016556917
235	0x3cfb1710	0.030650645
236	0x3c66fd78	0.014098518
237	0x3d0d2e6e	0.034468107
238	0xbc9dfcf0	-0.019285649
239	0x3d3d4313	0.046206545
240	0xbd77d4d8	-0.060505718
241	0xbce3a9db	-0.027790954
242	0xbd951c71	-0.072808154
243	0x3ce2306a	0.027610976
244	0x3d0a30c9	0.03373793
245	0x3d26a8d1	0.04068834
246	0x3c116984	0.008875255
247	0xbd45517c	-0.048173413
248	0xbd321348	-0.04347542
249	0x3d27fdf4	0.041013673
250	0xbcbac88e	-0.02280071
251	0xbd2aa477	-0.041660752
252	0xbccfa922	-0.025349203
253	0xbc3ab0f9	-0.011394733
254	0xbc022e21	-0.007945568
255	0xbc8013f4	-0.015634514

cnn_backbone.10.bias f4 [32]
0	0x3cb08c9e	0.021551427
1	0xbc2ee254	-0.010674078
2	0x3b81d592	0.003962227
3	0xbd41a502	-0.047276504
4	0x3b51ffe7	0.0032043399
5	0x3d36c58e	0.044621997
6	0xbc93e5f9	-0.018053995
7	0x3d04e03a	0.0324404
8	0x3d73db29	0.05953518
9	0x3d180c38	0.037121028
10	0x3d86c8ca	0.06581266
11	0xbd2c78a0	-0.042107224
12	0xbd36a966	-0.044595145
13	0x3a150a0d	0.00056853966
14	0x3d158de4	0.03651227
15	0x3d06e545	0.032933492
16	0x3d5d6aaa	0.0540568
17	0xbcb3b623	-0.021937435
18	0xbbc1d18d	-0.005914873
19	0xbd243e2b	-0.04009835
20	0xbd44d36a	-0.048053183
21	0x3b1b47ad	0.0023693845
22	0x3cabbbe0	0.02096361
23	0x3d6096a3	0.05483116
24	0xbd99b748	-0.07505661
25	0xbca1f207	-0.019768728
26	0xbce4ea86	-0.02794386
27	0x3c1cce52	0.009570675
28	0xbcaa7f1f	-0.02081257
29	0x3a944e5e	0.0011314859
30	0xbce9f0ac	-0.028557144
31	0xbcd55d1b	-0.026045373

cnn_backbone.11.weight f4 [32]
0	0x3f7cc55a	0.98738635
1	0x3f808e33	1.0043396
2	0x3f7d166d	0.98862344
3	0x3f80f6f6	1.0075366
4	0x3f7ee6b6	0.99570787
5	0x3f7eac29	0.99481446
6	0x3f7c8dd6	0.98653924
7	0x3f7f340f	0.9968881
8	0x3f811ce6	1.0086944
9	0x3f80e75e	1.0070608
10	0x3f808110	1.0039387
11	0x3f7ec415	0.9951795
12	0x3f7d2163	0.9887907
13	0x3f80563e	1.0026319
14	0x3f815f53	1.0107216
15	0x3f8194f0	1.0123577
16	0x3f7f0782	0.9962083
17	0x3f7e6b93	0.99382895
18	0x3f805a2b	1.0027517
19	0x3f8011e7	1.0005463
20	0x3f80269b	1.0011781
21	0x3f819326	1.0123031
22	0x3f7ee229	0.99563843
23	0x3f7e625e	0.99368846
24	0x3f80d618	1.0065336
25	0x3f81f209	1.0151988
26	0x3f8074b5	1.0035616
27	0x3f802f88	1.0014505
28	0x3f7fd3ba	0.99932444
29	0x3f7e37ec	0.9930408
30	0x3f80c915	1.0061365
31	0x3f7f10cc	0.99635005

cnn_backbone.11.bias f4 [32]
0	0xbc40b9fa	-0.01176309
1	0x3c5efabf	0.013609587
2	0xbc511d6c	-0.012763362
3	0x3bbc571e	0.00574769
4	0xbbe8aa56	-0.0071003838
5	0xbc9034c8	-0.017603293
6	0xbcb85d7a	-0.02250551
7	0xbc550f64	-0.013004158
8	0x3cd8a82d	0.02644738
9	0xbcef8b9b	-0.029241374
10	0xbbf03598	-0.0073306076
11	0xbc64d019	-0.01396563
12	0xbcb6c857	-0.022312326
13	0x3bf9c1ca	0.0076219784
14	0x3c68f902	0.014219524
15	0x3c903bfa	0.017606724
16	0x3a241da8	0.00062605226
17	0xbb8aaaef	-0.0042318027
18	0xbc28b520	-0.01029709
19	0xbcb3fc6b	-0.021970948
20	0xbb91e94b	-0.0044528595
21	0x3bf43099	0.0074520824
22	0xbc2c6d85	-0.010524158
23	0xbcb6d046	-0.02231611
24	0xbbd34587	-0.0064474973
25	0x3c1c32ed	0.009533626
26	0xbc99da91	-0.018780978
27	0xbb90d3ec	-0.0044197943
28	0xbcd951f2	-0.026528332
29	0xbcbc9a40	-0.02302277
30	0xbbcd71b0	-0.006269656
31	0xbc3a423a	-0.011368329

cnn_backbone.11.running_mean f4 [32]
0	0xbe3963e5	-0.18104513
1	0xbdc4a3fd	-0.09601591
2	0xbecdcebe	-0.40196794
3	0x3e99394b	0.29926524
4	0xbccc0eac	-0.02490934
5	0xbd8eba42	-0.069691196
6	0xbedde1c5	-0.4333631
7	0x3dfe2bca	0.12410696
8	0xbd2f2cf1	-0.04276747
9	0x3e66ac5d	0.22526689
10	0x3e862c51	0.26205686
11	0x3ed0af3b	0.4075869
12	0xbdd6ea75	-0.10493938
13	0x3d2d6e72	0.042341657
14	0xbdde90c5	-0.10867456
15	0xbe643714	-0.22286636
16	0xbd4f0568	-0.050542265
17	0x3e62d0fe	0.22150037
18	0x3e4fef13	0.20306043
19	0x3e93daef	0.2887797
20	0x3d94a6e3	0.072583936
21	0x3d93e3d4	0.07221189
22	0xbec8eb3f	-0.3924198
23	0x3e948567	0.29008028
24	0xbea41f6a	-0.32055217
25	0xbea291ae	-0.3175177
26	0x3ea095fb	0.31364426
27	0x3d019a12	0.031641074
28	0x3e8ce433	0.27517852
29	0xbe0cd771	-0.1375406
30	0xbeca366f	-0.39494655
31	0x3f055b37	0.5209231

cnn_backbone.11.running_var f4 [32]
0	0x3e0aed6d	0.13567133
1	0x3e664c6e	0.22490093
2	0x3e808fa5	0.25109592
3	0x3e1b87b4	0.15188485
4	0x3e813871	0.25238374
5	0x3dce1338	0.100622594
6	0x3f0d881a	0.552858
7	0x3e89e388	0.26931405
8	0x3e1972b6	0.14985165
9	0x3dad3d0a	0.08458908
10	0x3e2e7ba0	0.17039347
11	0x3e8d0622	0.2754374
12	0x3dc42886	0.09578042
13	0x3e2aeee8	0.16692698
14	0x3e25691d	0.16153379
15	0x3e5ceaf9	0.2157401
16	0x3e8b5784	0.27215207
17	0x3e8cc626	0.27494925
18	0x3df22c41	0.11824847
19	0x3e8c47a4	0.27398407
20	0x3e16be91	0.14721133
21	0x3e5d5939	0.21616067
22	0x3e3a1b18	0.18174398
23	0x3e278077	0.16357599
24	0x3df9aaa4	0.1219075
25	0x3e70c733	0.23513488
26	0x3de9c6be	0.1141486
27	0x3de79de1	0.1130941
28	0x3dd0fba5	0.102042474
29	0x3df390e1	0.11892868
30	0x3dd8fe84	0.1059542
31	0x3e1aaf98	0.15106046

cnn_backbone.14.weight f4 [64, 32, 3, 3]
0	0xbd738203	-0.05945016
1	0xbd8fbdb1	-0.07018603
2	0xbd7b3c40	-0.061336756
3	0x3d11a59d	0.03555833
4	0xbcdf84e5	-0.027285049
5	0x3d059705	0.032614727
6	0xbd3b6bf3	-0.045757245
7	0xbd1bdfe8	-0.03805533
8	0xbd069ea6	-0.032866143
9	0xbc60a3c5	-0.013710921
10	0xbbcd07ef	-0.0062570493
11	0x3caa83ec	0.020814858
12	0xbd86e9cb	-0.06587561
13	0xbd33687f	-0.043800827
14	0x3d2aa039	0.041656706
15	0xbd72c48d	-0.059269477
16	0xbc7db524	-0.015485082
17	0x3c0d035d	0.008606759
18	0x3cdf85ec	0.027285539
19	0x3ceb3ec5	0.028716454
20	0xbcbb9f5f	-0.022903142
21	0x3d0e00a4	0.03466858
22	0xbca00ada	-0.019536424
23	0xbcade895	-0.021229068
24	0xbd2f2d1f	-0.04276764
25	0xbd3d08df	-0.04615104
26	0xbd4f2ca8	-0.050579697
27	0x3c87052a	0.016481955
28	0xbd03e9a0	-0.032205224
29	0x3cfc4439	0.03079425
30	0xbcb4e37a	-0.022081126
31	0x3d47a6db	0.04874311
32	0x3cc4e5b3	0.02403531
33	0xbcd1ffd8	-0.025634691
34	0xbc938aeb	-0.018010577
35	0xbcfa358e	-0.030543115
36	0xbd1206ed	-0.035651136
37	0xbd01b100	-0.03166294
38	0xbcabc9e3	-0.02097029
39	0xbd300d65	-0.042981524
40	0xbd4679b6	-0.048455916
41	0xbd50927f	-0.05092096
42	0xbd53f0d9	-0.051743362
43	0xbd274e0f	-0.040845927
44	0x3cf1fe1d	0.029540116
45	0xbc9d73cb	-0.019220253
46	0x3d0c7f4f	0.0343011
47	0x3d0fe822	0.03513349
48	0x3c3b4bc6	0.01143164
49	0x3d3012ca	0.04298667
50	0xbd2d8f8a	-0.042373218
51	0x3c08bad9	0.008345329
52	0x3c54472a	0.01295642
53	0xbd94afb9	-0.07260079
54	0x3c9f8883	0.019474274
55	0x3cddd800	0.027080536
56	0xbd35de2d	-0.044401336
57	0xbc022fa1	-0.007945926
58	0x3a63c134	0.00086881523
59	0xb9ddaa02	-0.0004227907
60	0xbd1ada31	-0.03780574
61	0xbcecd050	-0.028907925
62	0xbd2dc545	-0.04242446
63	0xbd252f28	-0.040328175
64	0x3d1af197	0.037828054
65	0x3d0ba2df	0.034090873
66	0xba94ef33	-0.0011362791
67	0xba06eb33	-0.0005146742
68	0x3ca4a1be	0.020096656
69	0x3ba8f3e0	0.0051560253
70	0xbcc3b5b6	-0.023890357
71	0x3d4b0423	0.049564492
72	0xbc52bdd4	-0.012862641
73	0x3c901222	0.017586771
74	0xbd433cc2	-0.047665365
75	0xbce928e8	-0.028461888
76	0x3d592e1b	0.053022485
77	0x3d4e1ee7	0.05032244
78	0xbd45cc9d	-0.048290838
79	0x3d07d7e6	0.03316488
80	0xbc84f5ad	-0.016230429
81	0xbd323f91	-0.043517653
82	0x3d8a2f68	0.06747323
83	0xbad56b90	-0.0016282666
84	0xbd0d1583	-0.034444343
85	0x3d1f8e7d	0.038954247
86	0xbca205c9	-0.01977815
87	0xbc7d6075	-0.015464892
88	0x3d204bb1	0.039134685
89	0x3ca1a852	0.019733582
90	0x3cf29b5e	0.0296151
91	0xbc41a135	-0.01181822
92	0xbcb352f0	-0.021890134
93	0x3c27f1ab	0.010250489
94	0xbcdcd074	-0.026954867
95	0x3cd4c7c7	0.025974168
96	0x3d145e62	0.036222823
97	0x3d6339ca	0.055475034
98	0xbcbd38f6	-0.02309845
99	0x3cef5804	0.029216774
100	0xbd391422	-0.045185216
101	0x3d8e43d7	0.06946533
102	0xbbe1fddd	-0.006896718
103	0x3c2cd7d9	0.010549509
104	0xbb0db53b	-0.0021622914
105	0xbd1b1ee6	-0.037871264
106	0xbd499e0c	-0.04922299
107	0x3cb54790	0.02212885
108	0x3cb2f4a5	0.021845171
109	0xbd14ddc3	-0.0363443
110	0xbd44de38	-0.048063487
111	0xbd404e5c	-0.04694973
112	0x3d4b2bcd	0.04960232
113	0x3c8336b0	0.016017288
114	0xbcea4559	-0.02859752
115	0xbc94949c	-0.018137269
116	0x3d0dd48b	0.034626525
117	0xbd1645aa	-0.03668753
118	0xbd84c899	-0.064835735
119	0xbcee1ed2	-0.02906743
120	0xbc07a132	-0.008278178
121	0xbce4bc2c	-0.027921759
122	0x3d5794b9	0.052632067
123	0xbc2f63dc	-0.010704961
124	0x3c61ed28	0.013789453
125	0xbd3f8339	-0.046756003
126	0xbd7b84ec	-0.06140606
127	0x3cad9976	0.02119134
128	0xbc0f40de	-0.008743493
129	0x3d535724	0.051596776
130	0x3cfa705e	0.030571159
131	0x3b974e13	0.0046174615
132	0xbcebc694	-0.028781213
133	0x3d336b0c	0.04380326
134	0x3ca167f0	0.019702882
135	0xbd1841fd	-0.037172306
136	0xbcc1be9a	-0.023650456
137	0xbd4ef370	-0.05052513
138	0xbd08c2f8	-0.03338906
139	0x3d492866	0.049110793
140	0xbcf1f2ba	-0.029534686
141	0xbd7b13be	-0.061298124
142	0xbd4f4572	-0.050603338
143	0x3d3849cb	0.04499225
144	0x3d072113	0.032990526
145	0xbd44d376	-0.048053227
146	0xbb6e547e	-0.003636628
147	0xbd5b69d0	-0.053567708
148	0x3c63353c	0.0138676725
149	0x3cb11c7c	0.021620028
150	0xbcf1956c	-0.029490195
151	0x3c9c9b7b	0.019117108
152	0xbc2feaee	-0.010737164
153	0xbc76ab96	-0.015055558
154	0xbc0ce844	-0.008600298
155	0xbd0578cb	-0.0325859
156	0xbc83119f	-0.015999613
157	0x3d1c49e4	0.038156405
158	0xbd714404	-0.058902755
159	0x3d1adf67	0.03781071
160	0x3b7cb00d	0.0038557083
161	0xbd6910f7	-0.056900945
162	0x3c0ba598	0.008523367
163	0x3c36e306	0.011162525
164	0x3c8af329	0.01696165
165	0xbd3f903c	-0.046768412
166	0x3d21aeb3	0.039473247
167	0x3d451405	0.048114795
168	0xbacf3442	-0.0015808421
169	0xb68ebfa4	-4.2542397e-06
170	0x3d1547e3	0.03644551
171	0xbd8dc2d7	-0.069219284
172	0xbaa99c2a	-0.0012940217
173	0xbd484054	-0.048889473
174	0x3b076509	0.0020659587
175	0xbd18d2e7	-0.037310507
176	0x3d664e37	0.056226935
177	0xbd72e683	-0.059301864
178	0x3d217a93	0.039423537
179	0x3cb1c357	0.02169959
180	0xbd7559d9	-0.05990014
181	0xbcd2d18d	-0.025734687
182	0xbd8a325a	-0.06747885
183	0xbcfc3fab	-0.030792078
184	0x3cbca087	0.023025764
185	0x3bc2c288	0.0059436
186	0xbd59a1b1	-0.053132717
187	0xbc33fa94	-0.010985035
188	0xbcedaf02	-0.029014114
189	0x3ca28a48	0.019841328
190	0xbd8dea81	-0.06929494
191	0xbc762951	-0.015024499
192	0xbd2619aa	-0.04055182
193	0xbcb1e568	-0.021715835
194	0x3d39f285	0.0453973
195	0xbd7f7ff8	-0.0623779
196	0xbd458fdd	-0.0482329
197	0xbd428898	-0.047493547
198	0x3d339047	0.043838765
199	0x3d461adb	0.048365455
200	0x3d36bd8b	0.044614356
201	0xbd48727b	-0.048937302
202	0xbd361b18	-0.044459432
203	0x3d2aa4fd	0.04166125
204	0xbbf527e6	-0.007481563
205	0x3d8a81c8	0.06763035
206	0x3d75acb7	0.059979167
207	0xbcc1e4c7	-0.02366866
208	0xbd37f976	-0.04491564
209	0x3d7e028e	0.062014155
210	0x3b08141b	0.0020763937
211	0xbccb8c1f	-0.024847088
212	0x3c90cf7b	0.01767706
213	0xbca80300	-0.020509243
214	0x3cfaf255	0.030633131
215	0x3d738437	0.05945226
216	0xbda067f0	-0.078323245
217	0xbd19e359	-0.03757033
218	0xbd8d7cf7	-0.06908601
219	0x3c5c22e9	0.013436058
220	0xbd680cb9	-0.05665276
221	0xbcd1d108	-0.02561237
222	0x3d4f8dab	0.050672214
223	0xbd5d6ee6	-0.05406084
224	0x3d4cc3a6	0.049991272
225	0xbb607757	-0.003425082
226	0xbda99b04	-0.0828152
227	0x3d0f4235	0.03497525
228	0xbd5a4952	-0.05329258
229	0x3d111873	0.035423707
230	0x3bfae2cd	0.0076564313
231	0xbd3d0582	-0.04614783
232	0xbd8944eb	-0.06702598
233	0xbd4b9198	-0.049699396
234	0x3c4c3d7a	0.012465829
235	0xbd7378ba	-0.059441306
236	0xbc6dcade	-0.014513699
237	0x3d478c60	0.048717856
238	0xbcd51ab3	-0.026013708
239	0xbcee2029	-0.02906807
240	0xbd09ce2b	-0.033643883
241	0x3d74f572	0.059804387
242	0xbbb4a33a	-0.005512622
243	0x3d3b1dc5	0.045682687
244	0xbd048ed9	-0.032362793
245	0x3cf188d3	0.029484188
246	0x3d660586	0.05615761
247	0x3c9b6df6	0.018973332
248	0x3c351da8	0.011054434
249	0xbb190a83	-0.0023352213
250	0xba9eea09	-0.0012124191
251	0xbcced23f	-0.025246738
252	0x3d1bdfc2	0.03805519
253	0x3c21efb2	0.009883808
254	0x3d817a4d	0.06322155
255	0xbccd62fc	-0.025071613

cnn_backbone.14.bias f4 [64]
0	0xbcdacf07	-0.026710046
1	0x3cf7bb35	0.030240634
2	0xbd24b9b0	-0.040216148
3	0x3c626bf9	0.013819688
4	0xbc719dfd	-0.01474714
5	0x3d1c96ff	0.03822994
6	0x3d1f9eda	0.038969852
7	0xbd2f78e5	-0.042839903
8	0xbd08452a	-0.033269085
9	0x3cc41a7b	0.023938408
10	0x3cabe305	0.020982275
11	0x3cf06d4d	0.029348994
12	0xbcd71925	-0.026257107
13	0xbd4eae90	-0.050459445
14	0x3d6f8007	0.058471706
15	0x3c095e8c	0.008384358
16	0x3d1627f2	0.03665919
17	0x3d430ed4	0.047621563
18	0xbd29efae	-0.041488342
19	0x3d5d2a05	0.05399515
20	0x3b8610bd	0.004091351
21	0x3d458ab3	0.048227977
22	0xbd4506df	-0.048102256
23	0x3b2b7d59	0.0026167242
24	0x3c6e0c65	0.014529322
25	0xbd483687	-0.048880126
26	0xbd43e7e0	-0.047828555
27	0x3ca806dc	0.020511083
28	0x3cf5f1b5	0.030022481
29	0x39fe192c	0.0004846541
30	0xbc241245	-0.010014121
31	0x3cebe06e	0.02879354
32	0x3c422b76	0.011851182
33	0x3cdae895	0.026722232
34	0x3d2d3e86	0.042295955
35	0xbca985e1	-0.020693721
36	0x3d288124	0.041138783
37	0x3cec2c0d	0.028829599
38	0x3d106283	0.035250198
39	0x3b270504	0.0025485167
40	0x3c50a1e5	0.012733911
41	0x3ca37b5e	0.019956287
42	0xbc861682	-0.016368154
43	0xbd37c10b	-0.044861834
44	0x3cb2d776	0.021831255
45	0xbd59915e	-0.05311715
46	0xbd405a42	-0.046961077
47	0x3d4ddf5e	0.050261848
48	0xbd1c1ad9	-0.03811154
49	0x3c3d79f6	0.011564722
50	0xbc72dcc6	-0.014823144
51	0x3b8f4027	0.004371661
52	0x3caa5f39	0.020797359
53	0x3c05dc76	0.008170238
54	0xbd177dfe	-0.03698539
55	0xbd0912d8	-0.033465236
56	0xbc0c1ca1	-0.008551748
57	0x3d801b91	0.06255258
58	0x3d5cc08d	0.05389457
59	0xbd0acbaf	-0.033885654
60	0x3cd34153	0.025787985
61	0x3d6486eb	0.05579273
62	0x3cdbb7ef	0.026821105
63	0x3d01c7f0	0.031684816

cnn_backbone.15.weight f4 [64]
0	0x3f815afc	1.0105891
1	0x3f832b53	1.0247597
2	0x3f7cc4db	0.9873788
3	0x3f816235	1.0108095
4	0x3f809746	1.0046165
5	0x3f7c706b	0.98609036
6	0x3f80b24a	1.005441
7	0x3f8006d9	1.000209
8	0x3f7fcad4	0.99918866
9	0x3f7b19cc	0.9808624
10	0x3f8125ba	1.0089638
11	0x3f7ea889	0.99475914
12	0x3f814fd2	1.0102484
13	0x3f7c76ea	0.9861895
14	0x3f7d0595	0.9883664
15	0x3f818584	1.0118871
16	0x3f7e8a85	0.99430114
17	0x3f80e62b	1.0070242
18	0x3f82e17f	1.0225066
19	0x3f82dfec	1.0224586
20	0x3f7a88b7	0.9786486
21	0x3f804cc1	1.0023423
22	0x3f7ea24d	0.994664
23	0x3f7a2da0	0.9772587
24	0x3f80c94a	1.0061429
25	0x3f7f9e01	0.9985047
26	0x3f7d8e59	0.9904533
27	0x3f7cd3b5	0.9876054
28	0x3f7d8e07	0.9904484
29	0x3f7f669f	0.9976596
30	0x3f80c525	1.0060164
31	0x3f7ff23a	0.99978983
32	0x3f7b8c58	0.9826102
33	0x3f7c9a39	0.98672825
34	0x3f7e51ae	0.99343383
35	0x3f7cbc4d	0.98724824
36	0x3f7e6dcb	0.9938628
37	0x3f809831	1.0046445
38	0x3f80d92e	1.0066278
39	0x3f7c7e4d	0.9863022
40	0x3f810f49	1.008279
41	0x3f8160c0	1.0107651
42	0x3f827e4e	1.0194795
43	0x3f7ebc46	0.9950603
44	0x3f7f3738	0.9969363
45	0x3f7e54eb	0.99348325
46	0x3f80b2a9	1.0054523
47	0x3f80bb4b	1.0057157
48	0x3f81102c	1.008306
49	0x3f7ee5e8	0.9956956
50	0x3f80f110	1.0073566
51	0x3f7f7e57	0.99802154
52	0x3f8050bd	1.0024639
53	0x3f7f851b	0.9981248
54	0x3f80d5b2	1.0065215
55	0x3f816c16	1.011111
56	0x3f81c968	1.0139589
57	0x3f813c1c	1.0096469
58	0x3f7bd489	0.9837118
59	0x3f7ca227	0.98684925
60	0x3f7c900c	0.986573
61	0x3f7ee819	0.995729
62	0x3f8056d5	1.0026499
63	0x3f80af38	1.0053473

cnn_backbone.15.bias f4 [64]
0	0xb8fc7c47	-0.00012039445
1	0xbbccc652	-0.0062492276
2	0xbce58598	-0.028017804
3	0xbc994024	-0.018707342
4	0xbcdde0c8	-0.027084723
5	0xbc531096	-0.012882372
6	0xbc841fc5	-0.01612843
7	0xbc8a7e6e	-0.01690599
8	0xbbfb72c6	-0.007673594
9	0xbc558c1e	-0.013033895
10	0xbca0b8b2	-0.01961932
11	0xbc9b25bc	-0.018938892
12	0x3bd92b03	0.006627442
13	0xbc9e430e	-0.019319084
14	0xbc3a4d10	-0.011370912
15	0xbb098e8c	-0.0020989506
16	0xbbcc87b2	-0.006241762
17	0xbc9c5d2a	-0.019087393
18	0x3a8bc020	0.0010662116
19	0xbc1c0b28	-0.009524144
20	0xbb5127e4	-0.0031914646
21	0xbc424b8c	-0.011858832
22	0xbc01cec6	-0.007922834
23	0xbc8bf8ac	-0.01708635
24	0x3b2cae9c	0.0026349192
25	0xbb150338	-0.0022737514
26	0xbc476bb5	-0.012171675
27	0xbc91cb04	-0.017797
28	0xbcdde15f	-0.027085004
29	0xbc8e6874	-0.017383792
30	0x3c232e95	0.0099598365
31	0xbbed4317	-0.0072406637
32	0xbc888488	-0.016664758
33	0xbccd5c63	-0.025068467
34	0xbb981b64	-0.004641937
35	0xbc49ec6c	-0.012324434
36	0xbc021c47	-0.007941312
37	0xbc84a0d8	-0.016189978
38	0xbc8ea29e	-0.017411526
39	0xbcd949da	-0.026524473
40	0xbcd2f17e	-0.025749918
41	0xbbab16f9	-0.0052212444
42	0xbc11c55d	-0.008897153
43	0xbc1372db	-0.008999552
44	0xbd00ec6c	-0.03147547
45	0xbc2b02f3	-0.010437715
46	0x3bf5d8a7	0.0075026336
47	0xbc184934	-0.009294797
48	0x3ba54165	0.005043196
49	0xbc885271	-0.016640874
50	0xbb9cb25e	-0.004782005
51	0xbc57f096	-0.013179919
52	0xbc1510c4	-0.0090982355
53	0xbc892b18	-0.016744182
54	0xbc688f48	-0.014194317
55	0xbc230823	-0.00995067
56	0x3c07bf97	0.008285425
57	0xbc4834d6	-0.012219628
58	0xbc3725d0	-0.011178449
59	0xbc57263c	-0.013131674
60	0xbc922543	-0.017840033
61	0xbc89c9ff	-0.016819952
62	0xbd06ded3	-0.032927345
63	0x3af8fc24	0.0018996042

cnn_backbone.15.running_mean f4 [64]
0	0xbf43ad5d	-0.76436406
1	0xbeeb8160	-0.45997143
2	0x3e385583	0.1800137
3	0xbe1609af	-0.14652131
4	0x3e9c3ee9	0.30516747
5	0xbe74f0b0	-0.2391994
6	0xbdc2f82d	-0.09519992
7	0xbdc79d08	-0.09746748
8	0x3ed14f6b	0.40880904
9	0xbeb6450d	-0.35599557
10	0x3ee9a097	0.45630333
11	0xbe5caeef	-0.21551107
12	0xbf095af6	-0.5365442
13	0xbe7b1b0e	-0.2452204
14	0x3d223ae3	0.03960694
15	0x3e0fb369	0.14033283
16	0xbe1724ca	-0.14760128
17	0x3d8c128c	0.06839475
18	0xbf25ff82	-0.64843
19	0xbea27238	-0.31727767
20	0x3c0548dc	0.008135047
21	0x3e9de805	0.3084108
22	0x3e8bbb0a	0.27291137
23	0xbf28df31	-0.65965563
24	0x3f1dd909	0.61659294
25	0xbf52bd14	-0.8231976
26	0xbf07e0b6	-0.53077257
27	0x3e299584	0.16560942
28	0x3d904311	0.07044042
29	0xbe090dde	-0.13384196
30	0xbdafb789	-0.085799284
31	0xbec40e1b	-0.38292012
32	0xbec3e1fb	-0.38258347
33	0xbe66654c	-0.22499579
34	0xbd352f8e	-0.044234805
35	0x3ef778b7	0.48334286
36	0xbf3824cf	-0.71931165
37	0xbf08ddf7	-0.5346369
38	0xbcf73d9d	-0.030180747
39	0xbebf4e6a	-0.37364513
40	0xbd702452	-0.058628388
41	0xbe0e5572	-0.13899782
42	0xbd8becf2	-0.06832303
43	0x3d7c412e	0.061585598
44	0x3e3f7387	0.18696414
45	0x3cd5fe77	0.026122315
46	0xbe3f1ae4	-0.18662602
47	0x3ed4260d	0.4143528
48	0x3ef1c552	0.47220856
49	0xbb9117ab	-0.0044278703
50	0x3e26007f	0.16211127
51	0x3e374d58	0.17900598
52	0xbc34a165	-0.011024808
53	0xbdb935df	-0.09043478
54	0xbe3e1adc	-0.18564934
55	0xbf084993	-0.53237265
56	0xbf80405d	-1.0019642
57	0x3e8bf793	0.27337322
58	0x3ebe2f3c	0.37145412
59	0x3dc8a70f	0.09797489
60	0xbe024919	-0.12723197
61	0x3d9345c0	0.07191038
62	0x3c213912	0.009840267
63	0xbd7ef886	-0.06224873
